…
y goes through alignment. Kernel optimization is identical but API-level flow differs.\n- BROADCAST_LEFT omitted — no consumer exists. Overlay handles its own left-broadcast.\n- INDEXED omitted — different computation (gather-evaluate-scatter), not a workload shape.\n- Pure detection function. No side effects, no heavy imports, no routing logic.\n\n## Files to Create\n- src/vibespatial/runtime/workload.py\n\n## Files to Modify\n- src/vibespatial/runtime/__init__.py — re-export WorkloadShape, detect_workload_shape\n\n## Tests\n- Create tests/test_workload_shape.py with parametrized tests:\n  - (100, 100) -\u003e PAIRWISE\n  - (100, 1) -\u003e BROADCAST_RIGHT\n  - (100, None) -\u003e SCALAR_RIGHT\n  - (1, 1) -\u003e PAIRWISE\n  - (0, 0) -\u003e PAIRWISE\n  - (100, 50) -\u003e ValueError\n  - (1, 100) -\u003e PAIRWISE (not BROADCAST_LEFT — that shape is not supported yet)\n\n## Acceptance Criteria\n- WorkloadShape importable from vibespatial.runtime\n- detect_workload_shape() handles all edge cases\n- Tests pass\n- ruff check passes","status":"closed","priority":1,"issue_type":"task","owner":"fair.plate8324@fastmail.com","created_at":"2026-03-25T22:12:50.855896307-04:00","created_by":"Jarmak","u
…
